Benchmark/f1tenth_benchmarks/zarrar/f1_tenth_model_small_noquantized.tflite (tflite, 455440 bytes, 18 tensors)

sequential/conv1d/BiasAdd/ReadVariableOp f4 [24]
00000000: 10da 97bb c18e 1d3b 4062 9e3c 0000 0000
00000010: 2bea 7d3b 027f 183b 16f0 38bb 0000 0000
00000020: 2692 e93b ba8f 123c af3f 6e3b 1b90 133c
00000030: c99a 503c 2764 823c 2cd4 343a 994b b3b9
00000040: fe66 06bc 7978 753c 7ae6 573c 17d9 a33b
00000050: 5b5b dd3b 27fb 973b dc05 e73b 7160 07bc
-0.0046341494 0.0024041387 0.019333959 0.0 0.0038744311 0.0023269062 -0.0028219274 0.0
0.007128018 0.0089454 0.0036353876 0.009006525 0.012732216 0.015916897 0.0006898071 -0.00034197865
-0.008203266 0.014982336 0.0131775085 0.0050002444 0.006755275 0.004638094 0.007050259 -0.0082627395

sequential/conv1d_1/BiasAdd/ReadVariableOp f4 [36]
00000000: 6fcf 36ba dda3 253c 236e d43a ceed cfbb
00000010: bbcb 0fbb a380 35bb dd9c f53a 3a0e 3abb
00000020: dbe3 67bc 98aa 1dbc 941f e9bb 8769 183c
00000030: db18 1fbc 208f 503c aaa8 fdbb 9d5c 0dbc
00000040: 2972 32bc e2fa 0cbc 8cc6 933c a71d 623c
00000050: f685 50bb 9687 3b3c e64f 3839 c1e7 e03b
00000060: 54a6 bc3a aaff 0a3c a314 9b3c dd7d 0c3c
00000070: 6716 503b 7375 193c ecab a2ba dbbb 553c
00000080: 66a7 6f3c 606c f53a bf0d 933b 0273 fa3b
-0.0006973659 0.010109869 0.001620714 -0.006345487 -0.0021941501 -0.0027695082 0.0018738766 -0.0028389827
-0.014153446 -0.009623192 -0.00711436 0.009302503 -0.009710516 0.012729436 -0.0077410536 -0.008628038
-0.010891476 -0.008604737 0.01803901 0.013801015 -0.0031818128 0.0114459 0.00017577372 0.0068635647
0.0014392831 0.008483807 0.018930739 0.00857493 0.0031751634 0.009366381 -0.0012410856 0.0130452765
0.014627313 0.0018724315 0.0044877226 0.0076431045

sequential/conv1d_2/BiasAdd/ReadVariableOp f4 [48]
00000000: 4cfb 7ab5 fa76 733b 5dac 343c 590d ad3b
00000010: 5113 8e3b b9e4 e43c 4b47 b73a a962 b23a
00000020: 2fcc 173c 451e b73b a133 77bb ff06 663c
00000030: 75a5 97bb 8925 673c 38ca e53b fb0a 773a
00000040: fc5f 1e3c ca96 a03b aaba 803a 917e 343c
00000050: e983 09bb 90f8 f2bb b568 56bb 42ea f93b
00000060: f435 88bb 52ff e1bb e184 c33c efcb 103c
00000070: 900f 90bc 5513 873a 03d3 903b 743f 283c
00000080: 2434 ac3b de1e 77bc e92c 0c3b a67e 193b
00000090: 9639 d6bb d0d4 1abc 1bcc 003c bfa4 1c3c
000000a0: be7c 343c cd76 e63c 9bca 84bb c8c1 08bc
000000b0: 3f51 09bc 3771 96bb 7ffd b1ba 66f4 68bc
-9.349794e-07 0.0037149773 0.011027423 0.005281132 0.004335799 0.027941095 0.0013983039 0.0013609725
0.00926499 0.005588325 -0.0037719982 0.014039754 -0.0046278783 0.01410807 0.0070126317 0.00094239385
0.009666439 0.004900788 0.0009821255 0.011016504 -0.0020983166 -0.007414885 -0.003271622 0.0076268027
-0.0041568223 -0.0068968916 0.023867073 0.008837684 -0.017585546 0.0010305444 0.004419686 0.010269035
0.005255239 -0.015083043 0.0021389073 0.0023421436 -0.0065376265 -0.0094501525 0.007861163 0.009560763
0.011016069 0.02813282 -0.0040524728 -0.008346982 -0.008381187 -0.004591133 -0.0013579576 -0.014218425

sequential/conv1d_3/BiasAdd/ReadVariableOp f4 [64]
00000000: 1133 d03b de3d 5b3c 2533 f73b f5fb 1b3c
00000010: 8093 42bc f27f 633c 3ec4 873c 3cee 8aba
00000020: 4a36 f83a b08a 5cbc e79c 8bba b9ab 88ba
00000030: 0858 313b 8f33 26bb 3e31 bb3b ee90 f83a
00000040: c69b babb b0b3 d3bb d050 c23c 205d ffbc
00000050: 964b 2ebb c4d0 68bb d842 983a e470 19bb
00000060: 4999 2fbc 0aff 6d3c f0b2 9cbb 5cc0 dabb
00000070: f90c dbbb 3a20 be39 bfdc 32bb 6dd1 d63b
00000080: 4eb5 0bbc 5005 113c fcf1 29bb 23ef 993a
00000090: 6cca 993c de55 9f3b 937d 733b cbfa c63c
000000a0: 442b 923c 6a4b 7ebb f47c 35bc 445a 6abb
000000b0: d23b a5bc 600b dbbb 6caa 91bb c57d 743a
000000c0: fd5a 283c e48e 26bc b4d2 e73b 6640 dfbb
000000d0: ae9b 213c d0bc 943c e439 a73c ee5f 203c
000000e0: 4ab8 73ba 19ab e839 9765 f2ba cbe8 6c3c
000000f0: dd4d 86bb c203 e239 0061 d2bb 867f 13bc
0.006353744 0.0133814495 0.0075439387 0.00952052 -0.011875987 0.013885485 0.016573068 -0.0010599564
0.0018937078 -0.0134608 -0.0010651619 -0.0010427154 0.0027060527 -0.002536032 0.0057126572 0.0018964091
-0.005694839 -0.0064606294 0.023720175 -0.031172335 -0.0026595346 -0.0035524825 0.0011616601 -0.0023413235
-0.010717698 0.014526138 -0.004782073 -0.006675763 -0.006684896 0.00036263635 -0.002729222 0.006555727
-0.008527113 0.008851364 -0.0025931587 0.0011744242 0.01877328 0.004862531 0.0037153705 0.02428951
0.017842896 -0.0038802275 -0.011077154 -0.003575937 -0.020170126 -0.0066847056 -0.0044453647 0.00093266024
0.0102756 -0.010165904 0.0070746783 -0.006813097 0.009863777 0.018156439 0.020413347 0.009788496
-0.00092971756 0.00044377966 -0.0018493411 0.014459799 -0.0040986375 0.0004310888 -0.0064202547 -0.009002572

sequential/conv1d_4/BiasAdd/ReadVariableOp f4 [64]
00000000: 1aaa 36b9 ad64 83bb 7817 ee3b d3c8 923c
00000010: 1ea7 a03b 9132 bd3c 2d8e a639 141b 333b
00000020: 942e 36bb 8af1 b8bb 41f9 b1ba deba c73c
00000030: e5c7 d53a 53d0 873c 0000 0000 89e3 a13b
00000040: 0d06 5dbb 4dc5 d5ba 686a 663c d4e3 2f3b
00000050: 986e 10bc 82cb 49bb 939c 0d3c 74d4 afba
00000060: e911 02ba 7c64 02bb 433d f3ba 7f15 853c
00000070: 93ab 66bc 8932 253c b744 8dbb 5d83 6ebb
00000080: 8c76 323c d59b 863a c0cb 1b3c e6e2 2a3c
00000090: c9a9 a9bb 3362 b83c 9763 c639 30be 893c
000000a0: 6b54 50bc 7c7e ef3b 913a c13b 5b8c 373c
000000b0: 8a01 87bb 127f c63b 9968 303c 3f88 aabb
000000c0: 0e2b 7a3a f3e2 ec3b 1f56 b63b 6755 efbb
000000d0: 5faa 0dbc 8300 ca3b d778 b63b 7198 d23a
000000e0: cb1c 05bc 5588 123c 2211 3f3c 2da9 303c
000000f0: ee1f 913b 9bce 873b d8f8 e5b9 98cd 7fbb
-0.0001742024 -0.004009804 0.0072659813 0.017918026 0.0049027344 0.023095401 0.00031767917 0.0027329372
-0.0027798759 -0.005644028 -0.0013578312 0.024381097 0.0016310184 0.016578829 0.0 0.0049404544
-0.003372553 -0.001630941 0.014063455 0.0026838677 -0.00881543 -0.0030791466 0.008643287 -0.0013414756
-0.0004961775 -0.001989632 -0.0018557686 0.016245602 -0.014078992 0.010082849 -0.00431117 -0.0036394217
0.010892522 0.001026983 0.009509027 0.010430073 -0.0051777107 0.022507763 0.00037839703 0.016814321
-0.012715439 0.0073087793 0.0058968742 0.011202897 -0.0041200565 0.0060576284 0.0107671255 -0.00520423
0.0009543159 0.007229203 0.0055644657 -0.007303882 -0.008646577 0.006164612 0.0055686045 0.001606716
-0.008124541 0.008943637 0.0116618 0.010782522 0.004428855 0.0041445023 -0.00043863687 -0.0039032456

sequential/conv1d/Conv1D f4 [24, 1, 10, 1]
00000000: a0ea 4ebd dba0 d6bd 55f1 153d 13ff b63d
00000010: 2275 1c3e 7418 71bd f8f0 e03d 32bd 0dbe
00000020: 59ba 6b3d 838a 08be 4494 c63d 7def e1bc
00000030: ef86 a53d 0cb1 d7bc c162 0a3d 4f36 003e
00000040: c5e2 01be 0371 183e 2062 c93d 4f1f 8a3d
00000050: 3143 2e3d 6bf9 76bd 51a4 8d3c a6c4 d0bd
00000060: 39f3 26bd 7207 a5bd 432f 07be d71a fc3d
00000070: 026a 0dbb 60f1 193e 4e1a b0bd 04ed 47bd
00000080: a0fe 613c f16a b1bd 4084 d8bb 8c8e a1bd
00000090: 7a02 efbd 38fa 593d 5883 dfbd 7050 98bc
000000a0: 2d0c 053e 4ab1 76bd f9d2 d8bc ec12 b03d
000000b0: 0257 463d 3b7c 02be 88a1 51bd c04b babd
000000c0: 36f1 5f3c 9cb0 033d 1917 863c a860 ddbc
000000d0: bdcf 113e 6db2 e53c 3ac6 ae3c 6952 55bd
000000e0: 6103 bb3c 83c7 09be 24ff 03be 9816 0abe
000000f0: 3f5e 10be 4f4a f93d 792f b0bc 9e8d 693d
00000100: 0e3b 87bd e7b3 023e d321 dcbd 839c 853d
00000110: 8c14 2dbd 8586 3bbb 0d50 80bd baca 57bd
00000120: a0b1 96bc 9041 233d e4b8 53bd f64b c4bd
00000130: 989f 963c 648d 50bd 56b2 63bd c3dd 06be
00000140: 951d 373c d9fe d03d 1a2d 3f3d a33b 123e
00000150: 4165 123e 45ee 113d 55ac d83d b291 853d
00000160: 8849 9f3c e133 51bd 44c4 a23d 433d 6a3a
00000170: d7f8 2c3e f6d3 c73b 0f8b d2bd c8a4 02be
00000180: f216 053d 40a6 96bc 1484 d7bd 7110 a5bc
00000190: 3371 64bd 50e8 fdbd e26f f93d 684e 163e
000001a0: a5da c0bd 6b52 1b3e 12a2 753c a5e0 253b
000001b0: b12a 3f3c 5078 c2bd 4c20 f93c 7a12 80bd
000001c0: 2767 8c3d 38e1 9a3d 2306 193e da83 1a3e
000001d0: 7db4 933b 9be4 dd3d 8d1c a33d e1da 073e
000001e0: 4132 83bc f38b 11be 4507 a8bd afed 11be
000001f0: a2c1 8c3d 14f9 05be de08 9fbd 5fd8 5ebd
00000200: 3ea4 13bc 11da a63d 4e8c a53d 307d 15be
00000210: d152 cfbc bb49 41ba bc92 74bc f5b9 293b
00000220: aec6 6bbd a664 853c 5cf1 543c 26c3 f93d
00000230: b772 f23d cb29 1f3e ace2 b93d ccd0 5e3d
00000240: e23c 2aba a37f c5bd ee85 d6bd 60ce 023e
00000250: d4c5 efba b738 10bd 9aa7 f8b9 ee3e 3f3a
00000260: f458 23bd 3782 8cbd a2e8 f13c 1f5e e23c
00000270: 1703 293d bf2c b8bd 46e0 1f3e 470a e93d
00000280: 4285 71bd 8b2d e23c cd04 3c3d fefa 053e
00000290: 446b e9bd a879 f6bd b0e8 01be a93b 60bd
000002a0: 8160 11be 1ffa 243e ff6d f3bd 18ce 76bc
000002b0: 11d8 e0bc 0d20 b83d 1c7b 62bd b76c 04bd
000002c0: 85e2 90bc 8b45 623c d503 09be 8722 d23c
000002d0: d91d 0fbe 3029 f5bc 9f87 0cbe 960f 2b3e
000002e0: b12f 923d d81d fabd 9100 04bd d69d e13d
000002f0: ef8d 8fbd 5ded e3bd 7d58 c73d aad3 303b
00000300: c889 00bd c25c 8c3c 5c58 debb 2c48 14be
00000310: 91c3 243e b175 df3d 99c2 a3bd b9b9 0ebe
00000320: c01f a9bd 328f c5bd 9689 013e 1e11 01bd
00000330: 281e 983b 5168 03be a516 833d 3131 cbbd
00000340: c308 19be dbb7 4d3d 1815 d83d 9a4c 18be
00000350: 8df6 f83d 7803 613c defe 403d 2d12 a73d
00000360: ede4 d0bd d9d8 c53d fcef e6bd 04e3 e33d
00000370: f183 0c3e 22a4 f43d 8ccb f7bc 3e98 14be
00000380: 54f7 6dbd 6411 1c3e 250d 093d d36f df3d
00000390: 2987 a9bd e9f2 963d c2ab b83c 2d79 613c
000003a0: 7a52 aebd c155 73bd 12b1 18bd 37c7 f03d
000003b0: 4bba fc3a 8e96 933d e77e 16bd e277 283d
-0.050516725 -0.104798995 0.036607105 0.0893537 0.15279058 -0.05886121 0.10983461 -0.13841704
0.05755076 -0.13334088 0.09696248 -0.027580017 0.08082377 -0.02632954 0.033785585 0.12520717
-0.12684162 0.1488686 0.09833169 0.06744253 0.042544547 -0.060296457 0.017290266 -0.10193758
-0.0407593 -0.08058061 -0.13201623 0.12309807 -0.0021578078 0.15033484 -0.08598767 -0.04881002
0.0137936175 -0.086629756 -0.0066075623 -0.07888517 -0.11670394 0.053217143 -0.10913724 -0.018593043
0.12992926 -0.06022767 -0.026467787 0.08597359 0.04842282 -0.12742703 -0.05117944 -0.090964794
0.013668349 0.03215085 0.016368436 -0.027023628 0.14239402 0.028039182 0.021334756 -0.052080546
0.02282876 -0.13455014 -0.12890297 -0.13485181 -0.14098452 0.12172376 -0.021507012 0.057019822
-0.06603061 0.1276394 -0.10748639 0.06523993 -0.042255923 -0.0028614115 -0.062652685 -0.05268357
-0.018395245 0.039857447 -0.051689997 -0.09584801 0.018386647 -0.05091609 -0.055589996 -0.13170533
0.0111764865 0.10204858 0.04667387 0.14280562 0.14296438 0.035627622 0.10579745 0.0652193
0.019444242 -0.051074866 0.07947591 0.00089355203 0.168918 0.0060982658 -0.102804296 -0.12758172
0.032492585 -0.018389821 -0.10523239 -0.020149441 -0.055772018 -0.12397826 0.12179543 0.14678347
-0.09416703 0.15168159 0.014992254 0.00253109 0.011667893 -0.09495604 0.030410908 -0.06253524
0.06855612 0.07562488 0.14943747 0.1508936 0.0045076 0.10834619 0.0796443 0.1326709
-0.016015174 -0.14213543 -0.082045116 -0.14250825 0.0687287 -0.13083297 -0.07765363 -0.054405566
-0.009011326 0.081470616 0.080834016 -0.14598536 -0.025308045 -0.00073733524 -0.014927562 0.0025898193
-0.057562523 0.016283344 0.012996998 0.12195425 0.11838286 0.15543287 0.09076437 0.054398343
-0.00064940576 -0.096434854 -0.10474764 0.12774038 -0.001829321 -0.035210337 -0.0004742712 0.0007295449
-0.039879754 -0.06860774 0.029529873 0.027632771 0.041262712 -0.0899291 0.15612897 0.113789134
-0.058964975 0.027609607 0.045903016 0.13084027 -0.113974124 -0.12034923 -0.1268642 -0.054744396
-0.1419697 0.16111039 -0.118862145 -0.015063785 -0.027446778 0.08990488 -0.055293187 -0.03233024
-0.017686138 0.013810526 -0.13380368 0.02565123 -0.1397623 -0.029926866 -0.1372361 0.16705164
0.07138003 -0.122127235 -0.032227103 0.11016433 -0.070094936 -0.11129258 0.09733675 0.002698163
-0.0313814 0.017134074 -0.0067854356 -0.14480656 0.16090228 0.1091112 -0.07996101 -0.13938035
-0.08258009 -0.09646453 0.12650141 -0.031510465 0.004642267 -0.12832762 0.064008035 -0.09921492
-0.14944749 0.050224166 0.10550898 -0.14872971 0.12156401 0.013733737 0.04711806 0.08157764
-0.10199914 0.09660501 -0.11276242 0.11127284 0.13722207 0.11945368 -0.030248426 -0.14511201
-0.0580972 0.15241009 0.0334598 0.10910001 -0.08277733 0.0737055 0.022542838 0.013761801
-0.08511825 -0.059407953 -0.037278242 0.11756747 0.0019281594 0.072064504 -0.036742117 0.041129954

sequential/conv1d_1/Conv1D f4 [36, 1, 8, 24]
00000000: c0e2 2abd 5816 953d 208a fa3d c214 ca3d
00000010: ac28 bcbd 9997 4ebd 5667 123d d45f d4bd
00000020: a554 a63c ab9e 2a3c d0c5 ab3d 44c5 82bc
00000030: 85ec 3dbd 816e 283d 1903 c33d 034c acbd
00000040: 4418 f9bc 0424 c73c 1513 ce3d 4249 a43c
00000050: 39e0 ce3d 2917 67bc 4090 183d 51a6 e0bc
00000060: 67bc ca3d cf4a d63b 3d6b b53d 26db ae3d
00000070: 5e27 ab3d cac5 223d bdc8 a73d e8a6 883c
00000080: 77d9 9ebd 48fa 9e3d 4eca cf3c 32dc c4bd
00000090: d47b c93d 23f1 323d 5929 91bd 1634 acbd
000000a0: b8c4 e33d 2900 a13d abe1 eabd 688f 46bc
000000b0: 100f 0a3d 7b11 d13d ff82 b03d a71d 273d
000000c0: 7aeb a8bd 1593 d33d 0ef5 19bd 3430 3d3d
000000d0: 5075 d4bd d901 803b ff40 8e3d 02ba d3bd
000000e0: c5e4 9cbd 3a21 ae3d ec1a d5bc 3281 b63d
000000f0: b1d6 c7bd c5a5 043d 99e0 c03d 1d18 dd3d
00000100: 7c2d 8a3d d543 f1bd ae90 5f3c bce3 883d
00000110: 24cc 07bd 8ae0 89bd a0a8 c33c 87ce 9b3d
00000120: 8484 7c3d fcb3 d0bc 33e2 3dbd 1282 3ebd
00000130: 368f 823d f5d8 a93d 6f2f b33d e86d 8d3d
00000140: 53b0 56bd dce6 b43d 005b 403d a899 a6bd
00000150: cd1b 3d3d 66e5 d5bd 8ee4 c4bd 5358 eb3c
00000160: b494 99bd 1372 b3bc ef89 903d 94fa b9bd
00000170: b2d1 863c 50ba 123d 6bae 9f3d a94a d33d
00000180: fa24 debd 8e34 523c 7bec 093c f0ba b13d
00000190: 8955 89bd 02c3 cf3c 82d9 033d 6831 713d
000001a0: 5cdf 783d fb2f f0bc 5887 52bd 19e3 343c
000001b0: a73a ce3c a70c 98bc c021 edbb 20fa 033d
000001c0: 7e6a 07bd 9053 81bd 8c4b ef3c 18be c03d
000001d0: fffb 1ebd 9b52 8a3d 2cf9 313d a687 3ebd
000001e0: 1fbe a13d cb55 d23d fb88 dcbc a979 6fbd
000001f0: 35c4 ae3d 26cc 893d f717 cc3d cccd 223d
00000200: 69ca 62bd df93 95bd bd93 c7bd ee87 a63d
00000210: cb4e 993d 48a4 ccbc b3ee 8d3c 35a1 05bd
00000220: 8c30 bf3d 357f 543d 15ba 9f3d da34 0f3d
00000230: 957c acbd 7cc5 c63c 8073 1c3d 472d 8c3d
00000240: 1b83 983c c42c 4bbd c54d 80bc 50d3 dcbc
00000250: 261f 963d f814 fa3c 4993 a5bd 5966 c9bd
00000260: fbb8 1cbc 32d2 123d 109c d9bb 4693 59bd
00000270: 99db 843d 39a4 bf3d ab16 383d 7969 cb3d
00000280: 3716 903d 3de0 40bd 84ef c3bd 45d3 88bc
00000290: 9794 743b de83 ddbd 5680 76bb 2d3b 133d
000002a0: 203e 663d d1fc bcbd 37ee 963d ce38 cd3d
000002b0: f34a ddbc 5e65 bcbd e05e 9a3d 703f b1bd
000002c0: e408 033c 589c 8db8 30d2 c5bc 6f8c e03c
000002d0: 7d06 663d 92ca 943d 1c5e e3bd 2326 05bc
000002e0: 27df 05bb a273 5d3d 788d e83c b24e c6bd
000002f0: e948 a9bd 132a acbd 3730 2cbd b214 bfbd
00000300: 6bba cc3b 4bca b33d a97a af3d ae5b c63d
00000310: 7d1d 85bd 7d8e ccbd deea 4abd 4036 bdbd
00000320: 9afb c4bd 69fc df3d 6638 45bd c9e7 dabd
00000330: 90cc 133d ea45 c93d 0c21 ba3b b4e0 f23c
00000340: 9a9a b93d 374b 7bbd dfed 6bbd fcac a9bd
00000350: 8618 02bd 8ce3 b9bd 93ae f13c 2d60 fb3b
00000360: 423f 8bbd cff5 d4bc fd53 da3d 2341 b6bd
00000370: 43d0 cd3d 1090 ae3b 874f 67bd 160e 55bd
00000380: 4f08 c33d 35f4 433c 3de2 c1bd 7337 c3bd
00000390: e007 b43c 4087 a2bd ebfb a5bd eeb1 9b3d
000003a0: 7c87 8dbd b732 42bc 5c54 5c3d 0323 cfbd
000003b0: 6ab9 a8bd fb50 85bd 6dd8 9b3d ac8f dd3c
000003c0: 0421 aa3d 7e1f 853d 522a bf3d 58a8 efbc
000003d0: 6342 9ebc 24aa 873b c8ff e0bc 167b 50bd
000003e0: 8640 d5bd 9349 af3d 2de1 0cba ea53 1fbd
000003f0: eb75 b3bd 113e 9abd ea91 9fbd 166b 41bc
-0.041720152 0.07279652 0.122333765 0.098672405 -0.09187445 -0.050437544 0.03574308 -0.1036984
0.020304034 0.010413806 0.08387339 -0.015963204 -0.04636814 0.04112101 0.09522075 -0.084129356
-0.030407079 0.024309166 0.10062233 0.020054463 0.10101361 -0.014104643 0.037246943 -0.027423056
0.09899216 0.0065396796 0.08858345 0.08537893 0.08357118 0.039739408 0.08192585 0.01668115
-0.07756322 0.07762581 0.025365021 -0.096123114 0.098380715 0.043686997 -0.070879646 -0.08408372
0.111215055 0.07861359 -0.11468824 -0.012119152 0.03370577 0.10208412 0.086187355 0.040799763
-0.082480386 0.10330788 -0.037587218 0.04618855 -0.10373938 0.0039064703 0.06945991 -0.103382125
-0.07660822 0.08502431 -0.026013814 0.08911361 -0.09757746 0.032384653 0.094178386 0.10795615
0.06746957 -0.11780516 0.013645334 0.06684062 -0.033153668 -0.067322806 0.023884118 0.07607751
0.061649814 -0.025476448 -0.0463583 -0.046510763 0.063749716 0.082933344 0.087492816 0.069057286
-0.05241425 0.088330954 0.046961784 -0.08134776 0.04616909 -0.10444145 -0.09613906 0.02872864
-0.07499066 -0.02190498 0.07057559 -0.09080997 0.016457412 0.035822213 0.077969395 0.10316975
-0.108468965 0.012829913 0.008418198 0.086782336 -0.06705768 0.025361542 0.032189853 0.058885008
0.060759887 -0.029319754 -0.051398605 0.011040472 0.025174452 -0.01856072 -0.0072366893 0.03222096
-0.033060543 -0.063147664 0.029210828 0.094112575 -0.03881454 0.06754037 0.04345052 -0.046516083
0.07897591 0.1027027 -0.026920786 -0.058465634 0.08533517 0.06728391 0.099655084 0.039747044
-0.055368815 -0.07303595 -0.09744976 0.08131395 0.07485732 -0.02498068 0.017325735 -0.032624442
0.093354315 0.051879127 0.07799164 0.034962513 -0.084222 0.02426409 0.038196087 0.068445735
0.018617203 -0.04960324 -0.015662083 -0.02695623 0.0733016 0.030527577 -0.08084733 -0.098339744
-0.009565587 0.03584499 -0.0066409186 -0.053118967 0.064871974 0.09357495 0.044943493 0.09932227
0.07035487 -0.04708885 -0.09567168 -0.016702304 0.0037320012 -0.10816167 -0.0037613115 0.035945106
0.05621159 -0.092279084 0.073696546 0.100206 -0.027013278 -0.09199022 0.07537627 -0.08654678
0.007997725 -6.752525e-05 -0.024148077 0.027410714 0.05615853 0.072652 -0.11101934 -0.008126768
-0.0020427199 0.054065354 0.02838777 -0.09682979 -0.0826586 -0.084064625 -0.04203817 -0.09330119
0.0062478087 0.08778819 0.085683174 0.09685455 -0.06499765 -0.09988115 -0.049540393 -0.09238863
-0.09618302 0.10936815 -0.04814949 -0.10688741 0.036083758 0.09827788 0.005680209 0.029648162
0.09062691 -0.061351027 -0.0575999 -0.08284947 -0.03176167 -0.09076604 0.029502189 0.007671377
-0.06799175 -0.025996117 0.10660551 -0.088991426 0.100494884 0.005327232 -0.056472328 -0.052015387
0.09523069 0.011960079 -0.0946698 -0.095320605 0.021976411 -0.07935953 -0.0810469 0.07602297
-0.06910607 -0.011852912 0.05379139 -0.101141 -0.0823849 -0.065095864 0.07609639 0.027046047
0.083070785 0.06500147 0.09334244 -0.029255077 -0.019318765 0.0041401554 -0.027465716 -0.050898634
-0.104126975 0.08558955 -0.000537413 -0.038898386 -0.087627254 -0.075313695 -0.07791503 -0.011805316

sequential/conv1d_2/Conv1D f4 [48, 1, 4, 36]
00000000: 10e0 f5bd aa01 fb3d 7446 78bd eebd 8e3b
00000010: 3dcc 993d 4be4 c93d 1a6c db3d 7b04 813d
00000020: 4888 913d 4f1a 1cbb fbf6 d73d c2c6 493c
00000030: 0951 bd3d 7559 8b3c e93a 79bd bbdb d3bd
00000040: 6abc b63d 5702 863c 13e5 febd e601 f6bc
00000050: 53a5 4ebd 0fa1 b63d 6136 783d bd24 69bc
00000060: e3ce 043e 34bb b23d 83bd c8bd 65a3 cb3a
00000070: 1f14 48bd 3cb1 613d 7ec6 c5bc d95f c53c
00000080: 1730 9fb9 fb2b 193e 63f7 d7bd 20e6 ab3d
00000090: 618b aa3d 431a 05bc d0e8 d13c 0265 b33b
000000a0: 6f7f 0d3d 7768 f4bd 9bfe f6bd 9364 fa3d
000000b0: eff9 ad3d ea1b 7abd c4ae c73d da01 df3d
000000c0: 1668 00be b7fb 63ba a17f 0c3e 0970 5bbd
000000d0: 961b b3bd 781e 73bd 1c9b d23c 51ac ab3d
000000e0: 4f0e aa3d 7578 dabd 0ff0 cdbd ed80 3fbd
000000f0: f6b8 8dbc 7aae a5bc 53f8 9cbb 999e 073e
00000100: 8f40 b03d a59f 333d 1c7c bf3c 4a5a 6f3d
00000110: 459b 323d 1bda c63d 3d76 2c3d be95 00be
00000120: 17dd aebd 04f9 ddbd fa87 093e b9de f5bd
00000130: 306d 81bd 6757 c0bc 8cb8 e43d 7567 ea3d
00000140: a9d3 b83b 2aaf 863c 826b 80bd ac71 07bd
00000150: 2b9e 17bd 832f 623d 761d 1a3d d2e9 04be
00000160: 7d2f 063e 9caf 92bd 19f8 10bd a524 ebbc
00000170: 0dce 8a3c 5a78 9d3d 2deb 583d a40a cf3d
00000180: 0b32 a2bd f2c7 a63d 79b3 a2bc d2af 8cbd
00000190: 16e4 edbd 4a38 513d 788c 253d 9eeb e7bd
000001a0: e97d 8a3d 8342 0b3d 1743 ff3c fda6 ccbd
000001b0: d3cf 41bd 4ea0 4b3d 2341 ccbd b50a 0cbd
000001c0: 8788 053d 129d f43d df30 54bd 94f7 febd
000001d0: 759a 20bd 8b4c ff3c 3fe3 ba3d 7c66 ab3d
000001e0: e1c2 033e 4b7d 00bd 197a fbbc d5e0 06be
000001f0: d1c3 cfbc e821 75bd 1646 da3d 3159 d23d
00000200: 8c53 97bc ea14 5a3b 1387 f83d e67a d43d
00000210: 4a1d e3bd 39a7 2d3c 8fdc 9dbc 80c6 333c
00000220: b978 8cbc 5b75 d2bd b45c b13b 86a8 c5bd
00000230: a84f 053b c26c ffbd ebcd a8bc 626e 16bd
00000240: b7cd c3bb 7468 ebbd a6cc 83bd c1be e23a
00000250: a169 e43c 0191 1e3d ee2a 2b3d 7549 1c3d
00000260: 967b f73c 0c4e 75bd d8e9 d83d 460a 97bd
00000270: 886b c83d 1a6c 57bc 9d63 3c3d addb d83d
00000280: b67e b03d b49d c43d 5898 1c3d 5f85 e53d
00000290: 041f 94bd b048 93bc 09b0 9abd c82d 59bd
000002a0: 4aaf 3dbb 0c70 d4bd 9762 923d 1685 fbbd
000002b0: aa6b 403d eeff be3d a2f3 c73c 0c12 7cbc
000002c0: c543 93bd 1ae7 063e 5c20 003e a0dc 7d3d
000002d0: e7b0 07be e729 93bd baf4 803d 6a1b 2f3d
000002e0: 2f7c 1dbd c8f7 edbb 21d2 84bb b371 80bd
000002f0: 2d23 e6bd 983f b73c 5452 963c 77e5 aabd
00000300: f8b4 993d a1c1 acbd b581 533d 556b 223d
00000310: ae6e 42bd 53ae b2bd e365 e73d 7eb2 123d
00000320: 8143 10bc 8457 c1bd ccd4 f8bd ffb7 e63c
00000330: 744d 98bd 9af5 3cbc bbbd a7bd cd53 bbbc
00000340: c41f 903d cb94 5c3d aaf4 b9bd bdd0 013e
00000350: b6af 39bd 8ee6 fe3c bda5 043e 680d b93b
00000360: d727 a03c 965b 06be cb9f 71bd 9c82 96bd
00000370: 0730 7d3c e5b3 2b3d 2d98 94bd 9ee4 04be
00000380: dcc0 01be 199d be3a 4f81 643d 43c9 aa3d
00000390: cd78 90bd 9b25 fbbd 4d6d 313c 4a51 adbd
000003a0: 8458 efbd 6e1b b8bc 7e7a dfbd 0fc7 d13d
000003b0: fe1d c2bd f056 05be def6 fb3d ccde cf3d
000003c0: a9d2 d1bd 83d9 c53d df1d 053e f63f 0a3e
000003d0: 0acc 5b3d b61b 5ebd fbaa 06bd b97e 13bd
000003e0: 6195 abbd 23c4 76bd 93a3 b9bd 7e6b fcbd
000003f0: 61be 82ba 015c b83d 039b febd d30f bbbd
-0.12005627 0.12256177 -0.060614064 0.0043561375 0.075096585 0.098579966 0.10713978 0.06299683
0.07106072 -0.0023819392 0.10545155 0.012315454 0.09243972 0.01701043 -0.060847197 -0.10344645
0.08922656 0.016358538 -0.12446036 -0.030030202 -0.050450634 0.08917438 0.060598735 -0.0142299505
0.12969546 0.087271124 -0.098017715 0.0015536366 -0.048847314 0.055100664 -0.0241425 0.024093555
-0.00030362673 0.14958183 -0.10545232 0.08393502 0.08327366 -0.008123937 0.025623709 0.0054746876
0.03454536 -0.119339876 -0.12060281 0.12226214 0.08494937 -0.061061777 0.09750131 0.10889025
-0.12539706 -0.0008696871 0.13720562 -0.053573642 -0.08745496 -0.05935523 0.025708728 0.08382476
0.083035104 -0.106675066 -0.10055553 -0.046753813 -0.01730011 -0.020224798 -0.0047903447 0.13244094
0.086060636 0.04385342 0.02337461 0.058435716 0.043605108 0.09709569 0.04210495 -0.12557122
-0.08538263 -0.108385116 0.13430777 -0.120053716 -0.06319654 -0.023479177 0.11168012 0.11445514
0.005640466 0.016440947 -0.062705055 -0.03306739 -0.037016075 0.055221092 0.037625752 -0.1297982
0.13104053 -0.07162401 -0.035392854 -0.028703997 0.016943956 0.07688971 0.052958656 0.101094514
-0.07919701 0.08143605 -0.01986097 -0.068694726 -0.116157696 0.051079072 0.040417165 -0.11324237
0.06762297 0.033998977 0.03115992 -0.09992788 -0.047317337 0.049713425 -0.09973361 -0.0341899
0.032600906 0.11944021 -0.05180442 -0.124495655 -0.0392098 0.031164428 0.09125375 0.08369157
0.12867309 -0.03136949 -0.03069787 -0.13171704 -0.025361927 -0.05984679 0.10657899 0.10270918
-0.018472455 0.0033276626 0.12135138 0.103750035 -0.11089571 0.010598951 -0.01927021 0.010972619
-0.017147409 -0.1027629 0.0054126624 -0.09651284 0.0020341668 -0.12471916 -0.020606002 -0.036726363
-0.005975451 -0.11494532 -0.06435518 0.0017299281 0.027882399 0.038712505 0.041788988 0.03815599
0.030210298 -0.059888884 0.10591477 -0.073750064 0.09786135 -0.013148332 0.045993436 0.10588775
0.08617918 0.09600392 0.038231224 0.11207079 -0.07232478 -0.017978996 -0.07553107 -0.053022176
-0.0028943592 -0.10372934 0.07147711 -0.122812435 0.046977676 0.093261585 0.024408165 -0.015385162
-0.071906604 0.13174096 0.12512344 0.061977983 -0.13251077 -0.071857266 0.06296678 0.042750753
-0.03844851 -0.007262204 -0.0040533696 -0.062716864 -0.11237178 0.022369191 0.018349804 -0.08344548
0.0750522 -0.08435369 0.05163737 0.03965314 -0.047468834 -0.08724656 0.1129873 0.035814755
-0.008805157 -0.094405204 -0.12149963 0.028163908 -0.07436648 -0.011533165 -0.08190485 -0.022867108
0.07037309 0.053852838 -0.09079869 0.12677284 -0.045333587 0.031115796 0.12953849 0.00564735
0.019550247 -0.13120875 -0.05899028 -0.073491305 0.015453345 0.041919608 -0.07255588 -0.12977836
-0.12671226 0.0014542668 0.05578738 0.08339169 -0.07054291 -0.12263032 0.010829282 -0.0846277
-0.11686805 -0.022474017 -0.109120354 0.102430455 -0.09478377 -0.13021445 0.123029456 0.10149917
-0.10245258 0.09660628 0.12999676 0.13500962 0.053661384 -0.054225646 -0.032877903 -0.036009524
-0.08378101 -0.060245644 -0.090644024 -0.1232519 -0.000997495 0.09001923 -0.1243191 -0.091338776

sequential/conv1d_3/Conv1D f4 [64, 1, 3, 48]
00000000: e302 d2bc 0a7e a4bb 10eb 8e3d 8b38 263c
00000010: bf03 19bd 8b3c fe3c 7f83 cfbd dd5c b1bd
00000020: 8cd7 f9bd 8e97 723c 0b80 e63d c34f 813d
00000030: 9615 473d d68c 52bd 9286 9c3d d721 d03d
00000040: f954 483c 7381 993d 7a22 d93c 7548 f13d
00000050: 4b10 7f3d ff7f 4bbd d0df a43d 2042 a53d
00000060: 60bb e9bd ba0c 183d a242 f93d a634 e03d
00000070: 8b8d 883d 5e41 5d3b dbe3 433d 8611 bb3d
00000080: fc31 b23c fff3 8bbd 74dc 85bd e616 08bd
00000090: 1256 563c be9a 4c3d a0ff bfbc a5bf 5abd
000000a0: 6cf8 6a3c 5fb1 1fbd 391b 5bbd 2c86 a7bc
000000b0: e6ec 07be 08ee fb3d aebc 8d3d b590 83bd
000000c0: ef59 8a3d 10c3 9f3d 0f53 cfbd 87bb 003e
000000d0: 79b3 e6bd 9011 993d 9c39 ef3d 50c3 86bd
000000e0: 64fd 993c c9e5 d83c 324a 023d f8a2 1fbd
000000f0: 674d abbd 539b 87bd 3eb1 b13d 77d2 5abd
00000100: a0e9 483d 4325 95bd fb7d 8f3b f7db e83d
00000110: 6601 9ebc 77c2 e83c f5a9 0e3d 37be 0abd
00000120: a945 e73d bdb1 9c3d 40c9 ce3d e93b 093e
00000130: 07c7 bcbd 5b5d d93d 2781 e43d 7864 40bd
00000140: e6b2 e53d 4100 e23d 1c5f dcbd a331 d5bd
00000150: a9d6 773d 3047 e83c cb8f 86bc 3a4b 963c
00000160: bab9 913d 2b9e 5b3d 2811 bcbd 301d 013e
00000170: 8a5d b9bd 3be3 203c 49c5 673d 6be7 173d
00000180: a6ff 11bd 8671 db3d 40d4 c8bd 2b7f 96bc
00000190: cd9c abbd c425 3ebd 8a6c cc3d a06f 16bd
000001a0: 33d6 d9bd 06f6 e0bd bdff ef3c cfc5 1e3d
000001b0: 7aa3 983d cb24 dcbd 5ce0 6cbd be76 fbba
000001c0: ac85 943c 6cae b5bd 7604 123c d3eb dc3d
000001d0: 69ad 94bd 9a1b 92bc 22cd ca3d fadb fbbd
000001e0: 8a1a adbd 6e53 633d 72e1 1abd f170 9f3c
000001f0: 457c 9c3c 905b 7abb 86a0 f6bd fb2a 08be
00000200: 928e bf3d 368b b0bc 4db6 a63c a574 f2bc
00000210: 3b55 a8bd ecd7 6ebd f7b7 e4bc a149 bcbd
00000220: aca1 503d a573 f1bc 5c63 5abd d2be 7c3d
00000230: da57 b9bd ab70 6bbd 8219 983d db38 00bd
00000240: 6d54 5d3d f587 a9bc d823 143b a48e a139
00000250: c045 d53d a542 d23d e692 053e 31a9 793d
00000260: b705 d63d e3fe 503d 5688 d8bd 3d00 d03d
00000270: eec9 b6bb 8f1d 333d 586f 17bb 3342 553c
00000280: 8f35 98bc 9fa3 dabc 865b d8bb 5c88 ee3d
00000290: 9a49 eebd bc0f a1bd 582c 5fbd ec3f 99bd
000002a0: 906f b43d e486 bdbd 0f4a a83d 52d8 f3bc
000002b0: 7bb3 f83d f842 663c 46ce e9bd 0a6d 02be
000002c0: 1cc0 9f3d 6133 48bc 46a2 883c a405 48bd
000002d0: 49e3 dbbd c4e9 a03d fc29 fe3d 3b1b 4bbd
000002e0: 5b64 b23d 3cfa cd3d 4208 653d 768d f63d
000002f0: 3800 7c3d 9cf0 b7bc 9476 d03d 658e ccbd
00000300: e227 ac3d d088 ad3d 4241 2e3c d469 043e
00000310: 3da0 68bc 1695 6dbc 5264 f4bd bbb2 0b3d
00000320: 0ad0 bd3d b34b 293d 6deb 7dbd 6c2d c43d
00000330: a32a 733d 1c03 f93d 1f9b e2bc 2f27 3eba
00000340: fc21 96bd 691a 83bd 246a 5c3c f3a1 fa3c
00000350: fa3d 7e3c 7788 81bc 9386 9d3d a1b4 d1bd
00000360: a6e5 d9bd bc0e 6c3c eb9c b6bd 7410 d5bd
00000370: 8577 6e3b dbb7 aabd 31a7 ac3c afea e4bd
00000380: d0f9 203d 310f 8dbd 3a4a 093d 8cf6 9f3d
00000390: 1b5a ab3d 0aaa bcbd 91dd b93c dd81 523c
000003a0: b5ec 343d 7850 0dbe a43a e5bd fd57 dc3d
000003b0: 0104 02be d031 90bd 9fce 743c 7af9 323d
000003c0: cf01 313d 470d f8bd f226 bf3d a7b5 f73d
000003d0: 1c29 30bd 0ad5 8abd 798a bfbd 4ad1 5e3d
000003e0: 0840 803d 1901 eebd fa8e c2bc 4b85 803c
000003f0: aed5 d9bd ea47 debd 2dfc 14bd 55e9 503d
-0.025636142 -0.005019908 0.06978428 0.010145317 -0.03735709 0.031034729 -0.10132503 -0.086602904
-0.121993154 0.014806641 0.11254891 0.063140415 0.04860457 -0.051403843 0.07642855 0.101627044
0.01222729 0.074953936 0.026505698 0.11781398 0.062271398 -0.049682613 0.08050501 0.08069253
-0.11412692 0.037121512 0.12170912 0.10947542 0.06667622 0.0033760886 0.04782472 0.09134202
0.02175235 -0.06833648 -0.06536189 -0.033224963 0.013082044 0.04995226 -0.023437321 -0.053405423
0.014341455 -0.038987514 -0.05349276 -0.02044972 -0.13273963 0.1230126 0.069207534 -0.06424085
0.06755435 0.07800877 -0.10123264 0.12571536 -0.112647004 0.07474053 0.1168091 -0.06580222
0.018797584 0.026476758 0.03180904 -0.03897378 -0.08364373 -0.066214226 0.086763844 -0.05342337
0.049050927 -0.07282498 0.0043790317 0.1137008 -0.019287776 0.02841304 0.034830052 -0.03387281
0.112925835 0.076510884 0.10096979 0.1340176 -0.09217649 0.10613509 0.11157446 -0.046970814
0.11215763 0.11035205 -0.10760328 -0.10409858 0.06050745 0.028354257 -0.016425988 0.018346418
0.07115503 0.053617638 -0.0918296 0.1260879 -0.09051044 0.009819801 0.05658463 0.03708593
-0.035644196 0.10715012 -0.098061085 -0.018371185 -0.08379517 -0.046422735 0.0998164 -0.036727548
-0.106365584 -0.10984425 0.02929675 0.038762864 0.07453056 -0.10749205 -0.057831153 -0.0019185168
0.018130146 -0.08871159 0.008912196 0.107871674 -0.07259638 -0.017835427 0.09902407 -0.122978166
-0.084523275 0.055499487 -0.037812658 0.019463034 0.019102225 -0.0038201548 -0.12042336 -0.13297646
0.09353365 -0.021550756 0.0203506 -0.029596636 -0.082193814 -0.058311388 -0.027919753 -0.09193731
0.050935432 -0.029474089 -0.053317413 0.061705418 -0.090499595 -0.057480495 0.0742674 -0.03130422
0.054035593 -0.020694712 0.0022604372 0.00030814589 0.104136944 0.10266618 0.13044319 0.06095237
0.10450309 0.05102433 -0.10572879 0.101562954 -0.005578271 0.04372936 -0.0023107138 0.013016271
-0.018580226 -0.026689349 -0.0066027073 0.11647102 -0.11635132 -0.07864329 -0.05448565 -0.07482895
0.08810341 -0.09254244 0.082172506 -0.029766236 0.12143608 0.0140540525 -0.11416297 -0.12736908
0.07800314 -0.012219281 0.01667894 -0.048833504 -0.107367106 0.07857087 0.12410352 -0.049586516
0.087105475 0.10057494 0.05591608 0.120387 0.061523646 -0.022453599 0.10178867 -0.09988097
0.084060445 0.084733605 0.010635676 0.12930995 -0.01419836 -0.014500877 -0.11933197 0.034105998
0.09268196 0.041331958 -0.061992098 0.09578976 0.059366833 0.12158796 -0.027661858 -0.00072537636
-0.07330701 -0.06401522 0.01345304 0.030594802 0.015517706 -0.015812142 0.076916836 -0.1023953
-0.10639505 0.01440781 -0.089166485 -0.10403529 0.0036387157 -0.08335849 0.021075817 -0.11177575
0.03930074 -0.06887663 0.033518054 0.07810697 0.08366796 -0.0921212 0.022688659 0.012848345
0.044171054 -0.13800228 -0.111928254 0.1075897 -0.1269684 -0.07040751 0.01494184 0.04369495
0.043214615 -0.121119075 0.093336 0.12095194 -0.043007955 -0.06778915 -0.093525834 0.054398812
0.06262213 -0.11621303 -0.023749817 0.015688559 -0.10636459 -0.1085356 -0.036373306 0.051003773

sequential/conv1d_4/Conv1D f4 [64, 1, 3, 64]
00000000: aada c53c a34b 793d 98e6 41bd 268a bd3d
00000010: bef1 11ba 80cf 87bd 3dda 953d e9e2 193c
00000020: d2b9 313d 7ae1 62bd 68ba 31bd 7b01 83bd
00000030: 35b4 8e3d 2e01 b43c 22f2 88ba 3c08 b3bd
00000040: d75d 73bd 88bb 393d 577d c5bd 67cd c33b
00000050: 1192 6c3d 7d7c 6e3d bed3 853d 2610 b8bd
00000060: 01ad b03d 2459 5c3d 2955 8cbd d9a6 a23d
00000070: 4dcf dfbd 7f26 febc 75c8 93bd e984 d13c
00000080: d7b9 b6bb aa76 713d 29d2 c73d efb3 e5bd
00000090: 62b4 043e cbd2 693d 37fe 833d 98a8 c2bb
000000a0: 6047 bd3d b195 713c 6248 ce3d 173f 70bd
000000b0: 6057 a0bd dc50 a0bd c2ba 2bbd 634f f63b
000000c0: 8a81 b43d 61b6 a1bd 5a38 873d 52ac 383d
000000d0: 1a61 01bd 322d c43d 09e0 1f3c e097 52bc
000000e0: 1966 b03d 040b 3d3d bbc0 bf3d cd43 f2bd
000000f0: bd87 edbd fe1f bcbd 093b 8fbd 9953 2c3b
00000100: 365b 823c 8310 113c 71cc ddbd 4267 c6bd
00000110: ed11 423d 7278 303d 3411 ddbd 8e5d 99bc
00000120: 3f78 95bd 84c5 3c3b 2e76 963d 989e ddbd
00000130: e82f ae3d e553 953d 54c0 31bc f8c7 33bc
00000140: 5eab a2bd 47a9 e93d 923f d2bd 9a3b 7bbd
00000150: f4b5 da3d 3f72 633c 3794 e8bd 35d7 cd3b
00000160: 27ca 513d 39e1 b43d beb8 2c3d 6540 bcbd
00000170: 21e3 83bc 0b75 273d 48eb cf3d de8a 2e3d
00000180: 5076 753d cda3 f2bd 4c7c 0b3d 46ef 88bd
00000190: 1782 313d 2f31 ed3d be64 dfbd 149a d83c
000001a0: e4f2 c7bd e6eb d03d dd22 39bc 862b 5a3c
000001b0: 0244 863d 45bb ea3c c4fb 263d b866 e23d
000001c0: b852 e5bd 9a56 a73c 11fe ad3d 8cae d8bd
000001d0: af99 a53c 65ae 803d 1b8d 8c3d 96ae f6bd
000001e0: 7e5b 213d 6af8 1dbd 892f 81bb 40d2 853d
000001f0: 1f22 41bc bdc1 48bd 7ded 8ebb 3e76 d73d
00000200: fe21 cebd 2553 44bd bf8d a8bd 3262 253d
00000210: 8b5b a93d b8e9 66bd 9361 f43d a553 c93d
00000220: 9a7f 55bb 2913 eebd f993 cc3d b57b 103d
00000230: 36d5 5fbb 8740 c13c f73f b5bc 65c1 dfbd
00000240: c1f9 57bc 0b2a 833d 61c5 9fbd 010e c0bd
00000250: d41a abbc 18b6 183e a415 6c3d ead8 45bd
00000260: 026d 33bd 600e 6d3d c71c 7d3d fc2c 4a3d
00000270: 5557 c03d 1803 c1bd a3d2 a7bd ed56 a0bd
00000280: 29f9 70bd 183c 743d 5df7 bb3d 33bf 503c
00000290: bd76 0bbd 73ac 943d 225b 153d 7b24 97bd
000002a0: c2e5 8eba 006a 0a3d f1b9 f93d 31c3 3f3d
000002b0: 7381 b03d df11 adbd 4877 163d 6f58 ea3d
000002c0: 568d f2bd f1e8 c7bd 2043 933d b105 54bd
000002d0: f88f 723d a97f 0b3c cffd 7bbd 7b8e a23d
000002e0: 85c8 693d 9dad 733d c5aa 333d 81b1 98bc
000002f0: 9c98 c73d 6928 01bb e07e c23c e86d fe3c
00000300: eb8f 113d e7f8 03bd 2c16 0dbd 2705 f73d
00000310: cf9b 503d 1351 8ebc ea36 c03d 0d95 c63d
00000320: 8d0f 1d3d 344a 783d 9e8b babd 03a2 9f3d
00000330: 55c7 7bbd f374 813d d419 bc3c 1918 80bd
00000340: 5b1e 013e 59ad abbd f899 c8bd 3ca4 56bd
00000350: 5f49 a3bd eb84 83bd 1405 19bd 95a2 ddbd
00000360: 8182 c83d eb63 98bd 876c d1bc 9b88 a4bd
00000370: 5212 bc3d 5990 a6bd 9000 e9bd 50d6 50bd
00000380: 94be 66bd e970 adbd b099 9abd 9944 c0bd
00000390: 94be cebd 08aa 69bd a762 783d aaee 343d
000003a0: a575 d43c 5e26 93bd 1019 75bd 72fa cc3d
000003b0: 1a71 bbbc 80c1 c9bc 284c 543d b1d3 2d3c
000003c0: ad75 5f3d 18e3 553d 9d36 313d 3afe 28bd
000003d0: 25c6 683d a569 9b3d d808 7fbd 3d6b 3cbd
000003e0: 46e5 d03d 2299 8d3d ea54 b73b 371e b8bd
000003f0: 3b08 cc3d 7032 78bc 58ed c93d 04e1 823a
0.024152119 0.06086315 -0.047339052 0.09254865 -0.00055673334 -0.06631374 0.07317016 0.0093924785
0.043390103 -0.055390812 -0.04339066 -0.06396767 0.069679655 0.021973219 -0.0010448138 -0.08741805
-0.059415665 0.04534486 -0.09643047 0.0059754136 0.057756487 0.05822419 0.06534527 -0.08987455
0.08626748 0.05379595 -0.068521805 0.0794198 -0.10928211 -0.031024216 -0.072159685 0.025576072
-0.005576353 0.058951057 0.09756882 -0.1121596 0.12959436 0.057085793 0.06444972 -0.005940508
0.09242129 0.014745162 0.100724 -0.058653917 -0.078291655 -0.07827923 -0.041926153 0.007516788
0.0881377 -0.07896114 0.06602545 0.045086212 -0.031586744 0.09578933 0.009758004 -0.012853593
0.086132236 0.046153083 0.09362932 -0.11829338 -0.11598156 -0.091857895 -0.06993682 0.0026294945
0.015912633 0.008854034 -0.1083001 -0.096876636 0.047380377 0.043083616 -0.10794297 -0.018721368
-0.07298326 0.0028804252 0.0734676 -0.10821265 0.08505231 0.07291392 -0.010849077 -0.010972969
-0.07942842 0.1140924 -0.10266031 -0.061336137 0.10679236 0.013882219 -0.11356395 0.006281758
0.051218178 0.0883202 0.04216837 -0.0919197 -0.016099514 0.040883105 0.10152298 0.042612903
0.059927285 -0.11847649 0.034054086 -0.06686263 0.043336954 0.11581647 -0.10907887 0.026440658
-0.097631246 0.10201244 -0.011299816 0.013316041 0.0655594 0.02865375 0.040767446 0.11054748
-0.11197418 0.020427037 0.08495725 -0.10580167 0.020214884 0.06283263 0.06862851 -0.120450184
0.039393894 -0.038566984 -0.003942434 0.06534243 -0.01178792 -0.04901289 -0.004361807 0.105206
-0.10065077 -0.047930855 -0.08230161 0.04037685 0.082694136 -0.056375235 0.11932673 0.09830407
-0.0032577277 -0.11624748 0.09989161 0.035274226 -0.0034154183 0.02359034 -0.022125227 -0.10925559
-0.013182105 0.064045034 -0.07801319 -0.09377671 -0.020886816 0.14913213 0.057637826 -0.04830257
-0.04380513 0.057875037 0.061795022 0.049359307 0.09391657 -0.09424418 -0.08194473 -0.0782908
-0.058831368 0.059627622 0.0917804 0.012740898 -0.034048785 0.072594546 0.036463864 -0.07380005
-0.0010902213 0.033792496 0.12193669 0.04681701 0.086184405 -0.08450674 0.03673485 0.114426486
-0.11843364 -0.09761227 0.071905375 -0.05176324 0.05921933 0.008514323 -0.061521348 0.07937332
0.057075996 0.059491742 0.04386403 -0.018639328 0.09745905 -0.0019707924 0.02374214 0.031058267
0.03553764 -0.032219794 -0.034444973 0.120615296 0.05092984 -0.017372644 0.09385474 0.09696398
0.03834491 0.06061764 -0.09108661 0.07794573 -0.061469395 0.063211344 0.022961535 -0.06254596
0.12609236 -0.08382673 -0.09794992 -0.05240272 -0.07972979 -0.064218365 -0.03735836 -0.10822026
0.09790517 -0.07440933 -0.025564445 -0.08033868 0.09183182 -0.08133001 -0.113770604 -0.050985634
-0.056334093 -0.084688015 -0.07548845 -0.09388084 -0.10094944 -0.05704692 0.060640957 0.04417292
0.025935004 -0.07185052 -0.059838355 0.10008706 -0.02288108 -0.0246284 0.05183044 0.010609553
0.054555584 0.052218527 0.043264974 -0.041258074 0.05682959 0.075885095 -0.062264293 -0.046000708
0.101999804 0.069139734 0.0055948393 -0.08990138 0.09962507 -0.015148744 0.09859723 0.0009985273

sequential/dense/BiasAdd/ReadVariableOp f4 [100]
00000000: 2eee 40bc 06e4 13bc d518 f53a a540 fe3b
00000010: 67bd e4bb 0dd5 cd3b 3e12 faba 5ae9 acbb
00000020: 40c2 813b 1e36 8a3b c738 c13b a7bf 293b
00000030: 0000 0000 6293 a9bb 835c a4ba c57a dd3b
00000040: 906b 3b34 cd2a 583b ff02 91ba 2774 1abb
00000050: 18c2 a83c 621d 16bc 4d5b a8bc 3cd1 7cbc
00000060: e62e 12bc e88d 15bc 58d6 5cba 6daa 0fbb
00000070: 38a3 f73b b1c9 aab9 9900 47bb 0583 643b
00000080: 194d 733a b991 2abc 39d2 83bb 26cc 83bb
00000090: 0000 0000 dbaa b43c 6439 47bb 12e3 213c
000000a0: b52d 16bb b9d2 b6bb e7fb 9bbc de9d 183b
000000b0: cc4a f7bb 97a8 b53b 8313 013b 93cf 863b
000000c0: 8fae bcbb 8650 16bc 5f2b 66bb fbd0 653b
000000d0: 261a 95bc 6544 2bba 13e1 23b9 4ee1 0fbc
000000e0: 5d91 78bb 9572 95bb 859a 8e3c fe03 80b9
000000f0: 723b 1dbc 5396 963b e0fb 593b e39b b6bc
00000100: 70a9 ef3a 5ff2 5fbc 914b 893b aadf c23b
00000110: 4ba9 eaba 1a81 efba ed1b 153c ec1e c439
00000120: 9243 0a3b 88a8 96bb d8ec 50bc a688 4a3b
00000130: d3ce 0ebc 570d 25bb cada b3ba b789 4bbc
00000140: 7e53 39bb 89cf 873b fee9 03bc 8aed 203a
00000150: 3088 27bb 0142 c4bb df6a 4cbb e2fb c93b
00000160: 91c1 233c d534 8d3b 5adf 7dba 0bb4 05bb
00000170: e447 5cbc 9f7f d33a 360b 90bc b96a 973a
00000180: 065c c6ba d3ec 33bb f3cd 95bc 4bbd e93b
-0.011775536 -0.009026533 0.0018699417 0.007759171 -0.0069805863 0.006281501 -0.0019078923 -0.005276841
0.003959924 0.004217877 0.005896661 0.0025901587 0.0 -0.00517504 -0.0012539778 0.00675902
1.7454863e-07 0.0032984496 -0.0011063515 -0.0023567767 0.020600364 -0.009162279 -0.020551348 -0.015430745
-0.008922314 -0.009128071 -0.00084242737 -0.002192165 0.007557299 -0.000325752 -0.0030365346 0.0034868133
0.0009281203 -0.01041072 -0.004022863 -0.004022139 0.0 0.022054126 -0.0030399198 0.009880798
-0.0022915427 -0.0055793193 -0.019041015 0.0023287456 -0.0075467583 0.005543779 0.0019695468 0.0041141002
-0.0057581137 -0.009174472 -0.0035121066 0.003506719 -0.018200945 -0.0006533324 -0.00015628738 -0.008781744
-0.003792844 -0.0045607784 0.017407665 -0.00024417037 -0.009596692 0.0045955568 0.0033261701 -0.02229113
0.0018284749 -0.013668626 0.0041899164 0.005947073 -0.0017903236 -0.0018272728 0.009100896 0.00037407072
0.0021097404 -0.004597727 -0.01275178 0.0030904203 -0.008716303 -0.0025184953 -0.001372182 -0.0124229705
-0.0028278525 0.004144613 -0.008051394 0.00061389117 -0.0025563352 -0.0059893136 -0.003119163 0.00616406
0.00999488 0.0043092766 -0.0009684466 -0.0020401503 -0.013444874 0.0016136057 -0.01758347 0.0011552192
-0.0015133626 -0.002745439 -0.01828668 0.007133161

sequential/dense_3/BiasAdd/ReadVariableOp f4 [2]
00000000: ff37 3abc 6c1a 093b
-0.01136589 0.002092029

sequential/dense_2/BiasAdd/ReadVariableOp f4 [10]
00000000: 58e1 a3bb eb26 73b8 b9e1 1e3c 8a9d e4bb
00000010: bed4 d9b8 b20b 7c39 0000 0000 0000 0000
00000020: 0a19 933c 2379 2fbb
-0.0050012283 -5.797196e-05 0.009697371 -0.006976788 -0.00010386993 0.0002403695 0.0 0.0
0.017956275 -0.0026775084

sequential/dense_1/BiasAdd/ReadVariableOp f4 [50]
00000000: febe c13b 2cfc 243c 955e 2ebc ed5d 77b9
00000010: aacb c53b bba1 083d 1f82 183b 4bdc 793c
00000020: 5c1e 04bc 48b4 203b 8f0d 1abb 307d 06bc
00000030: 3210 7e3b e498 953c 7c3c c8ba 3770 95bb
00000040: 0d32 81bb e4ab f23b 9dbb 81bb 8419 e4b9
00000050: d57d a9bb 4d87 233b 1fa1 a0bb 0000 0000
00000060: 0b6a 8f3c e0ff 8d3c 8047 b7ba 474c d43b
00000070: b63c 883b 0746 02bc 7770 7abb e99c 643c
00000080: af5b c0bb 3aa0 c9ba 0000 0000 e611 cb3b
00000090: ad04 0bbc 8cdd 54bb 14ae 0b3c 8dee 993b
000000a0: 1e3a 53bb d953 a03b 37fc 63bb 38ec 8abb
000000b0: dfcf 653b 7a83 94b8 2d07 04bc 12ad e4ba
000000c0: 323c ad3a dedf 903a
0.0059126606 0.010069888 -0.010642667 -0.00023590746 0.0060362415 0.033357363 0.0023270918 0.015250276
-0.008063879 0.0024521518 -0.0023506617 -0.008208558 0.0038766977 0.01826138 -0.0015276815 -0.004560496
-0.003942734 0.007405745 -0.003959133 -0.0004350656 -0.005172471 0.0024952472 -0.0049020196 0.0
0.01750662 0.017333925 -0.0013983101 0.0064788195 0.004157628 -0.007951266 -0.0038214007 0.013953426
-0.0058703045 -0.0015382834 0.0 0.006197202 -0.0084850015 -0.0032480685 0.00852539 0.004697627
-0.0032230685 0.004892808 -0.0034787783 -0.0042395853 0.0035066528 -7.081679e-05 -0.008058351 -0.0017446599
0.0013216792 0.0011053046

sequential/dense/MatMul f4 [100, 704]
00000000: beec 903c 60d9 a0bd 4629 433c 492c c9ba
00000010: 9d88 713d 2e86 e83b b44d 37bd 8c57 84bd
00000020: 7b7f aebc 492b ad3c 9a19 3e3d ff2e b6bd
00000030: 33b2 8c3d adb2 cbbc b3c0 1fbd 4aee 0cbd
00000040: f190 24bd 8b54 1c3d 0320 5c3d a7eb f33a
00000050: c4e2 3e3d 8082 81bd 680d 243c 2aa8 743d
00000060: 20b3 09bd 42bc bc3c c955 9d3d 3710 a13c
00000070: 55ad 053c 9b1b 3a3d 10d4 ca3c aed1 073d
00000080: 1df2 a03c 6bb3 a33d 29f4 5f3d 522a c9bc
00000090: 282d a23d a889 a9bd 68a4 03bc 7920 9fbd
000000a0: d46e d83c 637f 1d3d 1c43 15bb 2fff 933d
000000b0: 0924 bf3d 7464 8d3b afaf 50bd 613f afbc
000000c0: a94b a23d 7b84 993d ef49 5e3d 29c9 8f3d
000000d0: 0102 9c3c c922 2abd 01f5 953d 15c5 af3c
000000e0: 27f1 2639 81a5 87bd f9a3 8bbd e108 f3bc
000000f0: 5ca5 453d e37f 5b3d e575 babc 8883 60ba
00000100: 63b1 04bb 2d0b b13d 3f84 743d fa1a 993d
00000110: 2481 91bd 2c6d 733d a8d7 953d b120 e13c
00000120: bbe4 46bd 1e50 92bd ab2b 103d 276c e4bc
00000130: ae76 3c3d a520 d1bc 7cca 333d 66e3 e2bc
00000140: 13d3 cc3c 8a53 ac3d e99f 623d 42ca fb3b
00000150: 67a3 ba3d bbff ab3d d0be 93bc 3e5f 17bd
00000160: a536 00bd cf05 dbbc 83e1 36bc 8b3d 9d3d
00000170: 1bab 1b3d 4b0b 533d 8cfd 4e3d 141a 593d
00000180: 42de babc 1836 9abc 3f12 c9bc b6ad 30bd
00000190: 93bb b23d c9a8 80bd 4a9a 813d 7ea5 93bd
000001a0: a48d 3d3c 392b fcbc 9073 133d e310 723d
000001b0: 528e c43d 8e92 16bd 0867 143d c69d a9bd
000001c0: 242a 8cbd 99be 8d3d 9e2f 0b3d bf48 4dbd
000001d0: 1c56 a33c 85b8 4c3d f20c 1abc fd7d 1b3d
000001e0: 13bd 513d bc87 933d 2748 59bd 0ff8 ab3d
000001f0: 5252 2f3d 357e 6bbd 0081 133d 0448 363b
00000200: db3d 67bd 07f1 243d f8ff c2bc 0878 923d
00000210: da1e d83c 4017 5e3c 5c20 cabc 2460 753d
00000220: 38ba 17bc b0be 87bc 7238 b9bc ec5e 57bb
00000230: 6c1c 893d f8fe a8bd d0a2 da3c 5912 8cbd
00000240: 3096 7a3d 34cb a93c c70c 2c3c c2d6 a33c
00000250: ca6c 73bd e9a6 933c 8fd2 86bd c66b 9bbd
00000260: b206 00bc d206 a5bd 4149 033d 3fad acbd
00000270: 5639 753c beef b5bd c287 9b3d 1116 37bd
00000280: 8be2 55bc 849b febc ea78 8bbc 0c37 57bd
00000290: f95f 6d3d d2cb adbc 2b15 873d 5177 a03d
000002a0: 0769 873c 3844 babc 2fa7 22bd 39aa 6cbc
000002b0: f130 99bd 1def 62bd 1db0 8dbc f8e3 873d
000002c0: 29a9 663d 10ab 1a3c 0c9c c13c e600 673d
000002d0: dba7 76bd 821f c13c c706 9fbc 7e42 8c3c
000002e0: fbc4 853d b38a 8ebd 7c28 3e3d b308 af3d
000002f0: 83ae 093d fe81 9ebd 8742 22bc 5761 27bd
00000300: 7537 8dbc 3b46 08bc 8acd c33b 4769 73bd
00000310: 42f0 5a3d 8624 7bbd 4a85 153d 4cd6 653d
00000320: dd12 19bd 8461 e93c 46eb 3dbd 7694 463d
00000330: 6e3e 45bd b20a aabd e0b8 1dbc c2f2 183d
00000340: fc1c 11bc ba3c 98bd 744a 04bd 4d80 9e3c
00000350: 57ff a93d e069 f9bc 9f9c 673c cb26 9b3d
00000360: e220 92bb 5d95 41bd bb2d 6bbd b5aa 40bd
00000370: 02f3 21bb 9d2d 86bc 12b1 06bd 7470 113d
00000380: d285 363c 5ec1 e43c 8a74 99bd ebfc 543d
00000390: 8405 f03c c603 cbbc 8045 b1bc d2d3 81bc
000003a0: 587d 4e3d b568 613d cdef 663d 4db4 49bd
000003b0: e5c6 783d 8c9b 97bc 0803 903d deed 2e3d
000003c0: e77f c83c 8169 36bc 451f 9ebd 5ba6 2bbc
000003d0: 2482 e93c 2729 22bd 5dbf a63c d77e 203d
000003e0: d882 bd3c 05c2 78bc 1ae2 f03c 48fe 653d
000003f0: 0f4d a83d 198d 53bc 155e 59bd 3347 0abc
0.017691012 -0.07853961 0.011911696 -0.0015348281 0.058968175 0.0070960736 -0.044751838 -0.06462011
-0.021301022 0.021138804 0.046411134 -0.088956825 0.06869926 -0.024865473 -0.03900213 -0.034406938
-0.04017729 0.038166564 0.053741466 0.0018609659 0.04660298 -0.06323719 0.010012962 0.059730686
-0.033618093 0.023038987 0.07682378 0.019661052 0.008159001 0.045436483 0.024759322 0.03315895
0.019646699 0.07993206 0.05467621 -0.024556313 0.07918769 -0.08278209 -0.008034803 -0.077698655
0.026420034 0.038451564 -0.0022775596 0.07226407 0.09333045 0.0043149535 -0.050948795 -0.021392526
0.07924587 0.07495972 0.054269727 0.0702079 0.019043924 -0.04153708 0.073221214 0.02145628
0.0001592083 -0.06623364 -0.06818385 -0.02966732 0.048253402 0.05358876 -0.022761295 -0.00085645216
-0.0020247332 0.0864471 0.059696432 0.074758485 -0.0710471 0.059430286 0.07316524 0.027481409
-0.048557978 -0.071441874 0.035197895 -0.027883602 0.04601162 -0.025528261 0.043894276 -0.027696323
0.025002992 0.08414371 0.055328283 0.007684023 0.09113198 0.08398386 -0.018035322 -0.036956064
-0.031302113 -0.026736168 -0.011162165 0.07677754 0.038004976 0.05152444 0.05053477 0.053003386
-0.022811059 -0.018824622 -0.024544833 -0.043134414 0.08727183 -0.06282193 0.063282564 -0.072092995
0.011569414 -0.030782329 0.03599888 0.059098136 0.09597458 -0.03676086 0.03623107 -0.08282046
-0.06843975 0.06921119 0.03398096 -0.050118204 0.019938521 0.04998066 -0.0094025 0.03796195
0.051205706 0.07203624 -0.053047325 0.08396923 0.042803116 -0.057493407 0.036011696 0.002781392
-0.056455474 0.040268924 -0.023803696 0.071518004 0.026381899 0.013555348 -0.024673633 0.05990614
-0.009260707 -0.01657042 -0.022609923 -0.0032862974 0.06694874 -0.082517564 0.026688963 -0.06839437
0.061178386 0.020726778 0.010501093 0.019999865 -0.05942992 0.018023925 -0.065831296 -0.075889155
-0.007814096 -0.080579415 0.032052282 -0.084314816 0.014967283 -0.08883618 0.07594253 -0.04469878
-0.0130545 -0.031080015 -0.01702543 -0.05254273 0.057952855 -0.021215353 0.06595834 0.07835258
0.016529573 -0.022737607 -0.03971022 -0.014444881 -0.07480038 -0.055403817 -0.017295891 0.066352785
0.056313667 0.009440199 0.02363398 0.05639734 -0.060218673 0.023574594 -0.019412411 0.01712155
0.06531712 -0.069600485 0.046425328 0.08546581 0.033613693 -0.07739638 -0.009903557 -0.040864315
-0.017238358 -0.0083175255 0.00597543 -0.059426572 0.053451784 -0.06131413 0.036504067 0.056112573
-0.037371505 0.028488882 -0.046366952 0.048481427 -0.04815524 -0.08302821 -0.009626597 0.037340887
-0.008857008 -0.07433458 -0.032297567 0.019348288 0.08300655 -0.030445993 0.0141364625 0.075757585
-0.0044594863 -0.047261585 -0.05741666 -0.0470378 -0.0024711494 -0.016379172 -0.03288371 0.035507634
0.011140304 0.027924236 -0.07492931 0.051999014 0.029299505 -0.024782073 -0.021639585 -0.015848074
0.050412506 0.055031497 0.056381036 -0.049244214 0.060736556 -0.018506788 0.07031828 0.042707317
0.024475051 -0.0111335525 -0.07720808 -0.010476674 0.028504439 -0.039590027 0.020354921 0.039183464
0.02313368 -0.015182977 0.029404689 0.056150705 0.08217823 -0.012912058 -0.05306824 -0.008439827
